…
20/20 - 1s - loss: 0.4138 - accuracy: 0.8133 - val_loss: 0.4438 - val_accuracy: 0.7676
Epoch 13/15
20/20 - 1s - loss: 0.3902 - accuracy: 0.8282 - val_loss: 0.4290 - val_accuracy: 0.7782
Epoch 14/15
20/20 - 1s - loss: 0.3695 - accuracy: 0.8386 - val_loss: 0.4171 - val_accuracy: 0.7882
Epoch 15/15
20/20 - 1s - loss: 0.3512 - accuracy: 0.8490 - val_loss: 0.4074 - val_accuracy: 0.7950

Model: "Model_WordEmbeddingDemo"
_________________________________________________________________
Layer (type)                 Output Shape              Param #   
=================================================================
text_vectorization (TextVect (None, 100)               0         
_________________________________________________________________
embedding (Embedding)        (None, 100, 16)           160000    
_________________________________________________________________
global_average_pooling1d (Gl (None, 16)                0         
_________________________________________________________________
dense (Dense)                (None, 16)                272       
_________________________________________________________________
dense_1 (Dense)              (None, 1)                 17        
=================================================================
Total params: 160,289
Trainable params: 160,289
Non-trainable params: 0
_________________________________________________________________
